{"format": "torch", "nodes": [{"name": "node_attr_encoder", "id": 140300664181088, "class_name": "Linear(in_features=1, out_features=128, bias=True)", "parameters": [["weight", [128, 1]], ["bias", [128]]], "output_shape": [[2560, 128]], "num_parameters": [128, 128]}, {"name": "module_list.0", "id": 140300664172304, "class_name": "IGNN_Layer(\n  (phi_e): Sequential(\n    (0): Linear(in_features=258, out_features=128, bias=True)\n    (1): SiLU()\n    (2): Linear(in_features=128, out_features=128, bias=True)\n    (3): SiLU()\n  )\n  (phi_h): Sequential(\n    (0): Linear(in_features=256, out_features=128, bias=True)\n    (1): SiLU()\n    (2): Linear(in_features=128, out_features=128, bias=True)\n  )\n  (att_mlp): Sequential(\n    (0): Linear(in_features=128, out_features=1, bias=True)\n    (1): Sigmoid()\n  )\n)", "parameters": [["phi_e.0.weight", [128, 258]], ["phi_e.0.bias", [128]], ["phi_e.2.weight", [128, 128]], ["phi_e.2.bias", [128]], ["phi_h.0.weight", [128, 256]], ["phi_h.0.bias", [128]], ["phi_h.2.weight", [128, 128]], ["phi_h.2.bias", [128]], ["att_mlp.0.weight", [1, 128]], ["att_mlp.0.bias", [1]]], "output_shape": [[2560, 128]], "num_parameters": [33024, 128, 16384, 128, 32768, 128, 16384, 128, 128, 1]}, {"name": "module_list.1", "id": 140300664171536, "class_name": "IGNN_Layer(\n  (phi_e): Sequential(\n    (0): Linear(in_features=258, out_features=128, bias=True)\n    (1): SiLU()\n    (2): Linear(in_features=128, out_features=128, bias=True)\n    (3): SiLU()\n  )\n  (phi_h): Sequential(\n    (0): Linear(in_features=256, out_features=128, bias=True)\n    (1): SiLU()\n    (2): Linear(in_features=128, out_features=128, bias=True)\n  )\n  (att_mlp): Sequential(\n    (0): Linear(in_features=128, out_features=1, bias=True)\n    (1): Sigmoid()\n  )\n)", "parameters": [["phi_e.0.weight", [128, 258]], ["phi_e.0.bias", [128]], ["phi_e.2.weight", [128, 128]], ["phi_e.2.bias", [128]], ["phi_h.0.weight", [128, 256]], ["phi_h.0.bias", [128]], ["phi_h.2.weight", [128, 128]], ["phi_h.2.bias", [128]], ["att_mlp.0.weight", [1, 128]], ["att_mlp.0.bias", [1]]], "output_shape": [[2560, 128]], "num_parameters": [33024, 128, 16384, 128, 32768, 128, 16384, 128, 128, 1]}, {"name": "module_list.2", "id": 140300664171008, "class_name": "IGNN_Layer(\n  (phi_e): Sequential(\n    (0): Linear(in_features=258, out_features=128, bias=True)\n    (1): SiLU()\n    (2): Linear(in_features=128, out_features=128, bias=True)\n    (3): SiLU()\n  )\n  (phi_h): Sequential(\n    (0): Linear(in_features=256, out_features=128, bias=True)\n    (1): SiLU()\n    (2): Linear(in_features=128, out_features=128, bias=True)\n  )\n  (att_mlp): Sequential(\n    (0): Linear(in_features=128, out_features=1, bias=True)\n    (1): Sigmoid()\n  )\n)", "parameters": [["phi_e.0.weight", [128, 258]], ["phi_e.0.bias", [128]], ["phi_e.2.weight", [128, 128]], ["phi_e.2.bias", [128]], ["phi_h.0.weight", [128, 256]], ["phi_h.0.bias", [128]], ["phi_h.2.weight", [128, 128]], ["phi_h.2.bias", [128]], ["att_mlp.0.weight", [1, 128]], ["att_mlp.0.bias", [1]]], "output_shape": [[2560, 128]], "num_parameters": [33024, 128, 16384, 128, 32768, 128, 16384, 128, 128, 1]}, {"name": "module_list.3", "id": 140300664170480, "class_name": "IGNN_Layer(\n  (phi_e): Sequential(\n    (0): Linear(in_features=258, out_features=128, bias=True)\n    (1): SiLU()\n    (2): Linear(in_features=128, out_features=128, bias=True)\n    (3): SiLU()\n  )\n  (phi_h): Sequential(\n    (0): Linear(in_features=256, out_features=128, bias=True)\n    (1): SiLU()\n    (2): Linear(in_features=128, out_features=128, bias=True)\n  )\n  (att_mlp): Sequential(\n    (0): Linear(in_features=128, out_features=1, bias=True)\n    (1): Sigmoid()\n  )\n)", "parameters": [["phi_e.0.weight", [128, 258]], ["phi_e.0.bias", [128]], ["phi_e.2.weight", [128, 128]], ["phi_e.2.bias", [128]], ["phi_h.0.weight", [128, 256]], ["phi_h.0.bias", [128]], ["phi_h.2.weight", [128, 128]], ["phi_h.2.bias", [128]], ["att_mlp.0.weight", [1, 128]], ["att_mlp.0.bias", [1]]], "output_shape": [[2560, 1
…
